code/Autoencoder.pt (torch, 719095 bytes, 4 tensors)

weight f4 [50, 1774]
000000 eb eb f6 bd 18 3b 03 bd 1f 91 a3 bc 40 f6 b1 3d
       -0.120567165 -0.032038778 -0.01996666 0.086895466
000010 c5 99 bf 3d a1 8b 30 3c e0 db 8e 3d 87 d6 15 3d
       0.09355501 0.010775478 0.069755316 0.036581542
000020 ad 69 0a bd 0f df 7a 3d b4 bf 9f 3d e2 a3 ad 3d
       -0.033792187 0.06124788 0.07800236 0.08478524
000030 bc 69 84 bc 49 f5 a8 bd fc 04 df bd d9 c4 55 3d
       -0.0161637 -0.082499094 -0.108896226 0.05218968
000040 2a e9 5f 3d 04 80 ab 3d 4b c1 b9 3d 20 21 09 3d
       0.054665722 0.083740264 0.09070071 0.033478856
000050 3a 1d f7 bc 24 40 22 3d 73 a3 8a bd 18 95 c3 3c
       -0.030165303 0.03961195 -0.06769457 0.023874804
000060 b9 68 59 3e 29 95 34 3c c1 f6 41 3d 34 b9 f2 3c
       0.21231355 0.011021891 0.047354463 0.029629327
000070 0e a3 e3 3c d5 6b a0 3c 2b 1d b7 3d e0 b7 0a 3d
       0.027787711 0.019582668 0.0894111 0.033866763
000080 10 4e 24 bd cd 7e 2a bc ba 09 80 bb 83 f4 3e 3d
       -0.04011351 -0.010406208 -0.0039074095 0.046619903
000090 f6 6c 18 3d f8 04 5e 3e 6a 6f ec bd 95 9f d9 3c
       0.03721329 0.21681583 -0.11544688 0.026565352
0000a0 ed 6e b4 3d 6e ae f4 3d 64 a1 b2 3c b0 d2 01 bd
       0.0881022 0.11947332 0.021805473 -0.031695068
0000b0 64 fe 57 bc cc d6 f1 3c 1c 2b e2 3c 92 bb 29 bd
       -0.01318321 0.029521368 0.027608447 -0.041438647
0000c0 50 6c a6 bc 21 63 ac 3c b3 53 6e 3d 9e 50 d8 bd
       -0.02031532 0.021043362 0.05818529 -0.105622515
0000d0 58 f3 1d bc 07 f6 48 bd 8d ce ad 3d ba 67 dc bc
       -0.009640537 -0.049062755 0.08486662 -0.02690493
0000e0 4a 8e d2 3c 00 08 ab 3d 33 63 26 bd 3a 91 53 3d
       0.025702614 0.08351135 -0.040621947 0.05165217
0000f0 b9 2e ee 3d fc b1 3e be 37 95 84 bd e1 b7 c1 3d
       0.116300054 -0.18622583 -0.06473773 0.094589
000100 6a c3 69 3c 2e 2d 5b bb 60 9c a0 3d ef 6d ae 3c
       0.014267782 -0.0033443677 0.07842326 0.021292655
000110 45 12 3a 3e 90 1e 67 3c e8 c3 05 bd ec 4a e8 bd
       0.18171032 0.014106408 -0.032657534 -0.11342415
000120 bb c5 f6 bc 35 b5 87 bd 27 42 5a 3c 33 dc ad 3d
       -0.030123582 -0.066263594 0.013321436 0.08489265
000130 a8 bc c0 bd 58 79 1a 3c 7b db 45 3d 07 cc de 3d
       -0.09410983 0.009428345 0.048305016 0.10878759
000140 28 3f cc bd 45 3e db 3c c6 a4 8d 3d d1 d6 01 3c
       -0.099729836 0.02676309 0.06916194 0.007924751
000150 87 de 00 be 76 8a a1 3d 17 49 99 3c 3d ff 4a 3d
       -0.12584887 0.078877375 0.01871161 0.04955982
000160 2d d0 c0 3d fa e1 11 3d 13 f3 3e 3e 2a df bd 3d
       0.094147064 0.0356159 0.18647413 0.09271081
000170 76 74 7f bd c2 f0 53 39 f2 df aa bc ab 15 c6 bd
       -0.062366925 0.00020212217 -0.020858739 -0.096721016
000180 ca a0 11 3d e3 04 57 3c 26 79 01 3e 31 43 25 bd
       0.03555373 0.013123724 0.1264387 -0.04034728
000190 22 04 43 3c bf ef 81 bc 45 fd 65 3c 14 bc 1f 3e
       0.011902841 -0.01586139 0.014037435 0.1559909
0001a0 51 8b e0 3d db 10 5b 3d c4 1a 00 3c b0 35 9c bc
       0.109640725 0.05348287 0.007818881 -0.019068569
0001b0 5d 30 09 be 37 cd 2d 3d e1 03 b5 3c 6f 58 29 be
       -0.13397355 0.042432036 0.022096576 -0.16537641
0001c0 8e 85 1a 3d 8d ea 86 3c d8 01 64 bd 14 7a 87 3b
       0.037725024 0.016469264 -0.05566582 0.004134426
0001d0 c2 c5 33 bb 43 8c cc 3d e3 46 d5 3c fc 47 8e 3d
       -0.0027431105 0.0998769 0.026034778 0.06947324
0001e0 bf 61 c2 3d 16 a4 6e bd 90 5f 7c b9 57 a3 a3 3d
       0.094913 -0.058261953 -0.00024068193 0.07990139
0001f0 6d 6f 23 3c 0f bb 94 3d aa bb 7d bb 1f e8 8f 3d
       0.009975296 0.07262241 -0.0038716593 0.070266955
000200 1a 56 9c ba ba 75 82 3d 64 28 e1 3d e3 72 f3 3d
       -0.0011927516 0.06370111 0.10994032 0.11887147
000210 2a f7 2e bc f4 7a 32 bd c4 4a e0 bd 02 b3 4b 3d
       -0.010679046 -0.04357429 -0.109517604 0.049731262
000220 85 df 20 bd 88 ed 80 bc aa d0 8e bd c4 ff e4 3d
       -0.039275665 -0.015738264 -0.06973393 0.11181596
000230 9b 8d 56 3c cf 8a dd bd 74 c8 ef 3c eb f6 9f bd
       0.013095285 -0.10817491 0.029270388 -0.07810768
000240 41 aa b1 bd 6b d7 e7 3d d6 83 88 3d cc af 0d 3e
       -0.086750515 0.113203846 0.06665771 0.13836592
000250 e5 41 7e bd 20 2e d1 3c ce 41 f7 bd 8c 97 76 bd
       -0.06207456 0.02553469 -0.12073098 -0.06020312
000260 23 47 58 bc c7 64 45 bd ef 0d 48 bd b9 ab 6b bd
       -0.013200554 -0.048191812 -0.048841413 -0.057536814
000270 67 bc 59 be d0 b9 06 3e 77 30 6c bb 90 3a 04 bc
       -0.21263276 0.1315682 -0.003603963 -0.008070603
000280 e5 2b 36 3d 32 d8 cc 3d 10 db 54 bd c6 e9 a2 3d
       0.044475455 0.100021735 -0.051966727 0.07954745
000290 01 e3 02 3e 99 3c 14 bd 0c d7 14 be 1d f6 24 3e
       0.12781908 -0.036190603 -0.14535159 0.1610951
0002a0 79 b1 ca bd e7 8d a1 3d 6f 34 cc 3d 0b 51 74 3d
       -0.098971315 0.07888394 0.099709384 0.0596476
0002b0 79 ec 4c 3e c3 93 03 3c d5 2d 4e 3e 30 ff 86 bd
       0.20012082 0.008030835 0.20134671 -0.06591642
0002c0 27 92 90 3d 9b 88 d4 3b 95 03 39 3e 12 13 a6 3b
       0.07059126 0.006486011 0.18067773 0.0050681913
0002d0 66 63 32 3d c4 c5 cf bb f5 a6 a8 3c 6d 98 ad bc
       0.043551825 -0.006340714 0.020587424 -0.021190846
0002e0 10 12 a9 bd 8e 83 01 bd 19 db 14 3d d1 fd 8c 3d
       -0.08255398 -0.0316196 0.03634176 0.06884349
0002f0 5d 75 24 3d f8 7c b8 3b 6b 7c 4c bd a1 f1 eb bd
       0.04015099 0.005630132 -0.04992334 -0.115206964
000300 03 14 bb 3d b0 4e 9a bd 5c 93 aa 3c f8 b2 33 3e
       0.09134676 -0.0753454 0.02082222 0.1754874
000310 d5 fd 0d 3d 49 09 3c 3d 99 61 ea 3d f3 c7 8c bc
       0.0346659 0.045907293 0.114443965 -0.017185187
000320 b4 97 83 bd 8d bd 65 3c 3e d6 d3 3d 3a 53 64 bd
       -0.064254194 0.014022243 0.10343598 -0.055743434
000330 e6 3a 51 3d 73 d4 48 bc 81 2a ed bd ee 76 fb bc
       0.05108156 -0.012257683 -0.115803726 -0.030696359
000340 be e0 49 3e 66 85 e6 3d dc 80 9b bd 12 44 60 3d
       0.19714639 0.112559125 -0.07592937 0.054752417
000350 82 e5 ee bc 61 8b f8 bd b5 2e 7d bd 7f 29 32 3c
       -0.029162172 -0.121359594 -0.06181212 0.010874151
000360 e4 0e d4 3c 74 69 c1 bc b1 51 7c 3d e0 a0 f0 3d
       0.025886007 -0.023609854 0.061601344 0.117494345
000370 63 5a de 3c a6 08 8f 3d fb c0 02 3e a9 37 7b bd
       0.02714271 0.069840714 0.12768929 -0.06133238
000380 63 dc 9d 3d d0 d1 99 3d d3 c3 24 3d 8a da 70 3c
       0.07708051 0.07510722 0.040225815 0.014700541
000390 1c 4f ad bc cf ad da bb 27 2c 4c 3e 79 2e 67 3d
       -0.021155886 -0.0066735516 0.19938718 0.056440804
0003a0 22 86 d1 bc 3e a4 2b 3e 80 47 0a be 9c 89 2f bd
       -0.025576655 0.16761872 -0.13503838 -0.042855844
0003b0 9c bf 05 3d cb 36 0b bc 71 77 28 3d 7b 7c bd bd
       0.032653436 -0.00849695 0.041129533 -0.092522584
0003c0 3a c9 a3 bd 08 57 a4 3c 51 bf de 3d a4 7c ca 3a
       -0.07997365 0.020061031 0.108763345 0.0015448523
0003d0 3c aa c4 bd fa 83 0a bc 63 ac 3c bd 5a 22 86 bd
       -0.09602782 -0.008454317 -0.04606284 -0.06549521
0003e0 aa 77 a2 bc ba 74 7f bd a3 85 3f 3e 01 a7 8d bd
       -0.01983245 -0.06236718 0.18703322 -0.06916619
0003f0 15 7f b1 bd 11 a6 66 3d 86 35 4b 3d 7a a5 89 bc
       -0.08666817 0.056310717 0.04961159 -0.016802538

bias f4 [50]
000000 b9 4e 12 bf 55 1d ef be 5b 10 8c 3e 2f 36 55 3f
       -0.5715137 -0.46702066 0.27356228 0.832858
000010 a4 55 bf bd 6b 9c fa be b0 d1 f3 be 64 cb 3a 3b
       -0.093425065 -0.48947462 -0.47620916 0.0028502578
000020 68 a0 2d bf a1 9f 43 bf 8b 23 9d bd 2b c0 7b 3f
       -0.67822886 -0.7641545 -0.07672795 0.983401
000030 71 03 b7 be 2c 63 1f 3e d3 22 1a bf e2 dd 38 bf
       -0.35744813 0.15565175 -0.6020939 -0.72213566
000040 fc bb 89 be 59 6b 51 3f a8 78 08 bf e6 4d 2a 3e
       -0.26901233 0.81804425 -0.53309107 0.16631278
000050 00 9a a6 be 00 7c 14 bf e3 f4 74 be 99 4c 39 bc
       -0.32539368 -0.5800171 -0.23921542 -0.011309766
000060 62 3d c6 3e 53 39 07 be f2 39 a3 3e e7 50 d5 be
       0.38718706 -0.13205461 0.31880146 -0.41663286
000070 1f 05 1e bf 0a 01 ea be 2a b9 15 3f 24 1e 4a bf
       -0.61726564 -0.45703918 0.5848566 -0.7895224
000080 be 48 4a bf 69 44 0b 3c 2f f4 f0 be 11 c5 6e be
       -0.79017246 0.008500197 -0.47061297 -0.23317362
000090 d0 50 7d be 68 54 30 bf a5 56 7c bf 51 e7 12 bf
       -0.24737859 -0.68878794 -0.9856971 -0.5738421
0000a0 9f 97 1d 3e cd c9 52 bf 3d 9c a2 3d 3d 3f 42 bf
       0.1538987 -0.82339174 0.07939956 -0.75877744
0000b0 c1 44 61 3e 72 b2 a8 be 24 6c ed be 65 fc b5 be
       0.21998884 -0.32948643 -0.46371567 -0.35544124
0000c0 6f e2 87 3e cd b1 b1 be
       0.26539943 -0.34705964

weight f4 [1774, 50]
000000 52 a9 11 be 32 d8 01 3e e0 ce dd bc 65 e5 24 bd
       -0.14224747 0.12680128 -0.027076185 -0.04025783
000010 14 16 ab 3c 1f 2f 3a 3e 58 3c da 3c a0 3e b4 bc
       0.020884551 0.18182038 0.026640102 -0.022002518
000020 ff f9 b9 3c 8e b4 48 3e 15 b0 8c 3e 7e be cc bc
       0.022702215 0.19600126 0.2747809 -0.024993178
000030 38 1d 91 bd ef 1d 00 be 2f 1f f3 3d 2e 4d a4 3e
       -0.07085651 -0.12511419 0.11871182 0.32090133
000040 5d 2c de 3d 5c 11 34 be 24 13 bc 3d 5c 7c 00 3e
       0.108483054 -0.17584747 0.09183338 0.1254744
000050 d6 74 79 be 39 d6 54 be 68 1a ba bc 29 79 5a bc
       -0.24360976 -0.20784844 -0.02271767 -0.013334551
000060 92 77 80 be c0 e8 d7 bc 20 30 81 be 71 b1 55 3d
       -0.25091225 -0.026356101 -0.2523203 0.052171174
000070 3e ed 92 bc a0 fd 6b 3e 96 7c 46 be a6 f6 a0 3d
       -0.017935392 0.23045969 -0.19383463 0.078595445
000080 ac a7 99 3c ba 60 17 be 5d 3c 2b bd b4 e8 ad bd
       0.01875671 -0.14782992 -0.041805614 -0.0849165
000090 3c 5b 30 be 79 0b c4 bd 2e 56 8b 3d 65 44 6f 3e
       -0.17222303 -0.09572501 0.06803547 0.23365934
0000a0 05 19 b7 bd fe 9a 31 3e 21 01 d9 bd 87 72 76 bd
       -0.08940319 0.17344281 -0.105959184 -0.060167816
0000b0 9f ff 30 bd c3 d9 a4 3d 5d 1b 82 3e 12 b0 0b be
       -0.04321253 0.08049347 0.25411502 -0.13641384
0000c0 7d 88 6a bd cd 0c f5 3d d2 da fe bc fe 77 9d 3d
       -0.05725907 0.11965332 -0.031110201 0.07688902
0000d0 f4 80 c6 3c 8b a6 b8 bd 3f 70 80 3b aa 10 fc 3c
       0.024231412 -0.090161406 0.003919631 0.030769665
0000e0 66 50 e5 3c 5d fe e0 3d 59 28 24 be 91 f1 31 3d
       0.027992439 0.10986016 -0.16031016 0.043443266
0000f0 9f 89 af bb 87 a9 d8 3a 8c 9d aa 3d 7c 8a 93 bd
       -0.005356982 0.0016530015 0.08330831 -0.07204148
000100 2f 60 97 bc 9c 11 d6 3d 18 6d 7f 3d 42 d1 61 bd
       -0.018478481 0.104525775 0.0623599 -0.055131204
000110 e8 a5 25 bc 1e 63 51 be 9a 8f 2b 3e d9 24 33 3d
       -0.010110356 -0.20447966 0.16753998 0.043736313
000120 8b 81 0c 3d d9 e7 04 3e 3a ba d5 bd d8 91 1a bd
       0.03430323 0.12979068 -0.104359105 -0.037736744
000130 0d cb e2 bd 53 18 02 bd c7 89 f3 bd c6 88 0e 3e
       -0.11073885 -0.03176148 -0.11891513 0.13919362
000140 cf ba 16 be ee 86 9b bd a5 a7 5a 3d 30 d6 b3 bc
       -0.147197 -0.07594095 0.053382535 -0.021952718
000150 a4 a5 33 bb 97 11 06 3e a4 bc 92 bd 91 4b 38 bd
       -0.0027411962 0.13092647 -0.071648866 -0.04499394
000160 3c 53 37 3d a5 0e 4d bc 26 83 ec 3d 57 cf a4 bc
       0.044757113 -0.012515699 0.11548452 -0.020118399
000170 53 a0 69 bc a9 96 11 3d 31 be 06 3e 49 ef e2 3d
       -0.014259416 0.03554407 0.1315849 0.11080796
000180 46 10 7c 3d 4a fe 15 be b0 e1 ab 3d 10 c8 e7 bd
       0.061538957 -0.14647785 0.08392656 -0.11317456
000190 13 27 48 3d 59 00 3a be c5 6d 07 bd 20 c2 b6 3d
       0.04886539 -0.18164195 -0.03306367 0.08923745
0001a0 55 b9 4e 3e cd 15 8e 3d a9 35 80 3e be 7e 76 3e
       0.20187886 0.06937752 0.2504094 0.24071786
0001b0 a4 4c d3 3d 13 eb 0e 3e 6e 2e 4b 3d e1 e7 0a be
       0.103173524 0.13956861 0.049604826 -0.13565017
0001c0 64 f6 f5 bc 92 97 09 be 31 f4 2a 3e fe f5 10 be
       -0.030024715 -0.13436726 0.16694714 -0.14156339
0001d0 a7 c8 75 3b 54 ab d3 bd 2c 33 48 3d a1 40 88 3e
       0.0037503631 -0.103354126 0.048876926 0.26611808
0001e0 b7 b2 99 3d 64 08 15 3e d9 50 4b 3e a6 56 a2 bb
       0.0750479 0.14553982 0.1985506 -0.004954177
0001f0 78 11 e3 bd 9d d5 ee bc f6 56 21 3e f4 14 36 be
       -0.11087316 -0.029154593 0.15755829 -0.1778143
000200 1a ef b2 bc dc cc d9 3d 26 8d 95 bd 5c d7 2b 3e
       -0.021842528 0.10634777 -0.073023126 0.16781372
000210 19 9f 16 bc 84 99 1a be cb ba 3e 3e d2 13 4c bc
       -0.009193205 -0.15097624 0.18625943 -0.012455897
000220 02 55 82 bd 3a 88 5f bd 61 4c 2e be 35 6b a3 bd
       -0.0636387 -0.054573275 -0.17021324 -0.079794325
000230 b0 9f 4e b8 8a 78 99 3c 33 df 84 bd 0b 89 c1 3d
       -4.9262948e-05 0.018734235 -0.06487884 0.09449967
000240 2d 8c c3 bd 79 03 52 3d a7 cf 91 3d 24 85 87 be
       -0.09548221 0.051272843 0.07119685 -0.26468766
000250 d8 02 81 3d 1b 4f a3 be 74 72 18 bd 2d bc 5e 3e
       0.062993705 -0.3189629 -0.037218526 0.21751471
000260 bb 00 88 3e 79 a1 00 3e 51 93 4b 3d 34 a3 eb 3d
       0.26563057 0.12561597 0.04970104 0.11505738
000270 dc 77 be 3d c8 9c 29 bd 78 20 bf 3d 00 d5 d4 3d
       0.09300205 -0.041409284 0.09332365 0.10392189
000280 a7 16 b1 3d b0 f7 27 be 3e f0 95 bc 18 d1 f5 3d
       0.08646899 -0.16403079 -0.018303033 0.12002772
000290 17 63 67 3e 4d 7d 33 3d 5a 72 49 3e 08 30 f3 bd
       0.22596394 0.043820668 0.19672528 -0.118743956
0002a0 7e eb 2e 3e dc ef 73 3e 36 55 5f 3d fa b9 8b bd
       0.1708202 0.23821968 0.054524623 -0.068225816
0002b0 5a 3c 76 3d 30 d0 e3 3d 39 01 82 3e 10 67 81 be
       0.06011615 0.11123693 0.25391558 -0.25273943
0002c0 83 de 43 bd 48 58 65 3d ff 45 ce 3d 71 d1 d9 bd
       -0.047819626 0.055992395 0.100719444 -0.10635651
0002d0 d7 aa 9c be fa 01 10 be 0e a1 c9 3d b3 5d c3 bd
       -0.3059909 -0.14063254 0.09845172 -0.09539356
0002e0 84 31 6e bd 6a 77 fc bd a3 d8 3f bd ca 40 29 bd
       -0.05815269 -0.12327464 -0.04683746 -0.041321553
0002f0 37 1a 5b 3e 4d 3c 64 bd b4 7b 72 3d 9c 85 4e 3d
       0.21396719 -0.05572157 0.059200004 0.05042039
000300 a3 f0 c9 3d 0a 32 23 3e 3a f0 43 bd 9e 89 5f bd
       0.09860351 0.15937057 -0.04783652 -0.0545746
000310 0c 5a cd bc 6a 33 0d 3e d1 78 09 3d 69 03 d0 3c
       -0.025067352 0.13789144 0.033562485 0.025392251
000320 bd 6e 9b bd 08 c1 ab bb b1 d6 99 be 7c 7b 43 be
       -0.07589481 -0.005241517 -0.3004661 -0.19090074
000330 f0 3f ad 3c 64 cb 63 3d be 56 bb bb 07 49 1c be
       0.021148652 0.05561389 -0.0057171276 -0.15262233
000340 3f 5b 9c 3e 4a 65 e6 3d 98 be 35 3d 1f 53 ce be
       0.30538365 0.11249788 0.044371217 -0.4029779
000350 e4 c5 02 3e dc 45 a4 3a c2 04 4a 3d 3a c9 1a be
       0.12770802 0.0012533027 0.049320944 -0.15115824
000360 e2 ef 21 3e f6 c7 ff bd 5f 90 39 3e 19 f0 ba 3c
       0.15814164 -0.124893114 0.1812148 0.022819566
000370 a7 66 fb bd 66 59 a1 3d eb 0b 39 3d 89 48 f9 bc
       -0.12275439 0.078783795 0.04517738 -0.030430095
000380 5a 62 54 be 90 e7 62 3d 7f 88 35 3d 31 2d b4 3b
       -0.20740643 0.055396616 0.044319626 0.0054985513
000390 c4 98 ae bd dd 49 55 3e fb c8 84 bc 00 3c 2c be
       -0.085252315 0.20828958 -0.016209116 -0.16819763
0003a0 48 94 10 3e cc a1 c9 3d 22 13 54 3c 74 60 cb bd
       0.14119065 0.098453134 0.012944015 -0.09930506
0003b0 8d 38 a2 bc f6 83 ce bc 9a 62 20 be 07 42 cb 3c
       -0.019802356 -0.025209408 -0.15662614 0.024811758
0003c0 52 0b 1b be 8e 64 90 bd 81 17 9d 3d 47 12 c2 bd
       -0.15141037 -0.07050429 0.07670499 -0.094761424
0003d0 77 29 cb 3d 50 bb 75 be f9 80 ff 3d 39 e9 23 3e
       0.09920018 -0.23997235 0.124757715 0.16006936
0003e0 eb 06 10 be 28 2d 4f 3e 43 55 3a 3c 4d f6 2f 3d
       -0.14065139 0.2023207 0.011372867 0.0429595
0003f0 4f 4c c5 3d ee 8d 5f be 56 8c ad 3c a6 09 bb bd
       0.09633695 -0.21831486 0.021185081 -0.091327

bias f4 [1774]
000000 83 ff d5 bd 50 b5 ab bb 5f 19 03 be e9 ab f6 3c
       -0.104491256 -0.00524012 -0.12802647 0.03011127
000010 3b 3f 83 be 07 f8 04 be 41 21 a0 3d a5 90 81 3b
       -0.2563418 -0.1298524 0.07818843 0.0039540105
000020 89 e3 fc bd 8b c0 a0 bc e5 71 2d bc 51 69 4c be
       -0.123480864 -0.019623062 -0.010586237 -0.1996205
000030 a1 de 86 bd ba 7b 36 3d 9e 32 87 bd c2 e1 24 be
       -0.06585432 0.04455159 -0.06601451 -0.16101745
000040 e7 72 e8 3d 81 c1 59 be 7c e2 83 bd 22 8d 5f 3c
       0.11350041 -0.21265222 -0.06439683 0.0136444885
000050 00 21 23 3d 1d 0c 61 3e 3e 14 11 be c3 87 15 be
       0.039826393 0.21977277 -0.14167878 -0.1460257
000060 c0 8c 7e be 76 9c d1 bc b7 4d 52 be a0 2d 4a 3d
       -0.2485838 -0.025587302 -0.20537458 0.049359918
000070 c9 b0 5e be aa 36 b7 bc b4 c8 ed 3c dd fa df 3d
       -0.21747126 -0.022364933 0.029026367 0.1093652
000080 0f e6 ca 3c 33 e9 e4 3c 4f e3 49 be 95 62 21 be
       0.024767904 0.02794323 -0.19715618 -0.15760262
000090 26 83 5a bd 19 0e 01 be 7c c8 6b 3c 55 8c 7f 3a
       -0.05334773 -0.12603034 0.014391061 0.0009748389
0000a0 d0 72 00 bd db 6a 2e bd 39 4a 5b bd 7e 18 a2 bd
       -0.031359494 -0.042582374 -0.05353758 -0.07914828
0000b0 fd 8b 98 3c 8b e2 56 be 56 49 f3 bd 78 f1 a5 bd
       0.01862144 -0.20984857 -0.11879222 -0.08102697
0000c0 db 10 31 be 40 ef 7b be 0b ec df bd e5 89 49 3d
       -0.17291586 -0.24602985 -0.109336935 0.049203772
0000d0 da b0 93 3d b5 a2 c4 bb a1 91 1f be 8f 25 06 3d
       0.07211466 -0.0060008415 -0.15582897 0.032750662
0000e0 da 8c d8 bc 3f 3f 8a 3c 6d 47 f5 bd 20 a3 05 be
       -0.02643435 0.016875861 -0.11976514 -0.13050508
0000f0 b6 7b f4 3c 5c 91 03 be 53 cb 2d bd 07 a0 0a be
       0.029844146 -0.12848419 -0.042430233 -0.13537608
000100 39 8e 58 be 14 8f 05 be 7a 37 4f bd b1 0e 2f 3e
       -0.21148004 -0.13042861 -0.050590016 0.17095448
000110 c3 9d 2d bc fc 5d ff bd bf 6b d7 bd f0 09 b6 3c
       -0.010596695 -0.12469098 -0.10518598 0.022221535
000120 37 76 61 bd 99 94 9e bd c5 16 e8 3d e3 db d8 3d
       -0.05504438 -0.077431865 0.11332468 0.10588815
000130 6f 52 02 be b2 7d 26 be 7b a5 43 3e 25 c7 70 be
       -0.12726758 -0.16258886 0.19106095 -0.23513468
000140 39 71 6f bc ea dc 58 3c 3c a5 8f bc df 71 f3 bd
       -0.014614397 0.013236264 -0.017534845 -0.118869536
000150 7c 48 ac bd 86 15 f5 3d 5a 08 21 3e 2d 3e 8f 3d
       -0.08412263 0.11966996 0.15725842 0.06994281
000160 2f 5c 42 3d b4 5c 0d be 1b 03 90 bd 99 8d 3a 3c
       0.047451194 -0.13804895 -0.07031842 0.011386299
000170 5d 5c a9 bd d5 2d d4 3c 75 85 3c be 08 a6 73 3d
       -0.0826957 0.02590076 -0.18410285 0.05948451
000180 ad 2b a6 bd bc 2d c5 bd 8f 51 83 be 86 69 2b be
       -0.08113799 -0.09627864 -0.25648162 -0.16739473
000190 1e df 1c be 26 d8 a4 3d 1e 7a 3f be e6 6d bf 3d
       -0.15319487 0.080490395 -0.18698928 0.09347133
0001a0 8e 36 4e be ee 0a e2 bd c5 ad 5b 3d 36 89 c8 bd
       -0.20137998 -0.11037241 0.053632516 -0.09791796
0001b0 c8 e5 18 3d 0f d0 48 be f2 e2 73 be ba af cf 3c
       0.03732851 -0.19610618 -0.23817042 0.025352348
0001c0 19 f3 7f be 0a 44 19 be ee 7d 9c bb 17 a0 37 be
       -0.24995078 -0.14967361 -0.004775754 -0.17932163
0001d0 88 4a a6 bd f8 02 3f 3d 60 60 28 3d e4 bb bf bd
       -0.081196845 0.04663369 0.041107535 -0.09362009
0001e0 3c ef 1d bd 24 3e 49 3d cc 54 d3 3a 85 39 cd 3d
       -0.03855823 0.049131528 0.0016123294 0.100207366
0001f0 5e 9d 64 3c f9 65 c8 bd 91 dc 0d be 72 df 61 be
       0.013953535 -0.09785075 -0.1385367 -0.22057894
000200 0b 29 2f bd 20 dc 64 be 0f 1c a9 bd 49 4a 04 be
       -0.04276375 -0.22349596 -0.08257305 -0.12918963
000210 e4 ac 2a bd be 83 1a be 9f f3 0d be ce 97 a1 bd
       -0.041668788 -0.15089318 -0.13862465 -0.078902826
000220 87 d1 00 be 1e de 6a be f5 7f cf 3d c1 ed 01 3d
       -0.12579928 -0.22936293 0.10131828 0.03172088
000230 c7 2e f3 3c 9c c6 d9 3b 29 63 0b 3e a2 3f 21 be
       0.029685391 0.0066459905 0.13612045 -0.1574693
000240 ee ff 91 bd c2 10 d9 bd ac 4b 75 3d 82 f7 e1 3d
       -0.07128893 -0.105988994 0.05988662 0.110335365
000250 d7 52 03 be 88 42 96 bd f4 c5 98 3c dc 2b 5e 3d
       -0.1282457 -0.073369086 0.018649079 0.054241046
000260 fd 9f 12 be 74 fd 1b be 55 a2 fe bc 25 92 ab be
       -0.14318843 -0.15233403 -0.031083265 -0.33509937
000270 21 51 d1 3c b3 56 a5 bc 1f fa 96 bd 67 e8 ef bd
       0.02555138 -0.020182943 -0.073719256 -0.11714249
000280 05 33 6f 3d 43 de c0 bd 2a 5b 40 bd cb d4 64 39
       0.058398265 -0.09417393 -0.04696194 0.00021823046
000290 66 3d 5f be ae 75 54 be b8 66 40 bd 77 c1 75 be
       -0.21800765 -0.20748016 -0.04697296 -0.23999582
0002a0 af 0b 11 be 6b dd c9 3d a9 f2 f0 bd 6c 83 e4 bd
       -0.14164613 0.09856685 -0.11765034 -0.11157879
0002b0 08 8b ea bd 54 d7 bb bc 30 3d bf bd da 47 9b bd
       -0.11452299 -0.022929825 -0.093378425 -0.07582064
0002c0 91 3b 12 be 8e 84 99 3c 67 c5 8b bd 22 1f 08 be
       -0.14280535 0.018739965 -0.06824761 -0.13293126
0002d0 61 35 2c 3d e3 05 f1 bd 29 ed 74 bc 6f 4d 39 be
       0.042043094 -0.11768701 -0.0149491215 -0.18095945
0002e0 01 61 01 bd 2f 59 02 bd 5c f9 79 3e bd 2a f5 bd
       -0.03158665 -0.031823333 0.2441153 -0.11971042
0002f0 99 be ff 3c de 8f 9a bc 05 23 af bd 56 2b 6f bd
       0.031218814 -0.01886743 -0.08551601 -0.058390938
000300 6b 54 0e bd c6 70 13 3d d1 3b 9b 3d 7c 8a b2 bc
       -0.034748476 0.03599622 0.075797684 -0.02179455
000310 9f 8f 20 3e 49 f3 1a bc 00 00 7d be 72 ea f9 bd
       0.15679787 -0.009457418 -0.24707031 -0.1220292
000320 43 df d4 bd e3 44 a7 3c 6f bd 4e be 3e d9 fa 3d
       -0.10394146 0.02041859 -0.2018945 0.12248467
000330 79 72 cb bc 97 d5 8b be d9 d7 87 3d 94 96 26 3e
       -0.024834858 -0.27311394 0.066329665 0.16268378
000340 3d 72 4b 3c 24 ec 86 3d 53 3e 72 bd 65 26 28 bd
       0.012417373 0.06588009 -0.05914147 -0.04105224
000350 e5 cc 0c bd a7 3a 5f 3d 5d 3a af 3d a7 a2 f1 3c
       -0.03437509 0.054499295 0.08556054 0.029496504
000360 ae f1 71 bd 8a 44 26 be 9f b0 80 be 41 ff 3d 3d
       -0.059068374 -0.16237083 -0.2513475 0.046386007
000370 2d e8 1f be 06 0f 0e be c0 7d e1 3c 3a 89 65 be
       -0.15615912 -0.13872918 0.027525783 -0.22415629
000380 d9 24 c8 3d ff 69 0b be cf 7d 6b be aa e5 89 be
       0.09772653 -0.13614653 -0.22997211 -0.26933032
000390 8c 89 0b be d7 a7 0a 3e 1e ca 6c be 9b b7 31 be
       -0.13626689 0.13540588 -0.23123977 -0.17355196
0003a0 97 6a 5a bd 6c ec e9 3c e8 ce d0 bc 42 b7 fd bb
       -0.05332431 0.028555118 -0.025489286 -0.0077427933
0003b0 14 6b 0b 3e 42 11 ba bd ea 5e 6f 3e 4c f2 6d 3c
       0.13615066 -0.09085323 0.2337605 0.0145231
0003c0 8d 98 e6 bd 0d bb 2b 3c 3e 5e b5 bd 20 37 dd bd
       -0.112595655 0.010481608 -0.08855866 -0.1080153
0003d0 d1 05 ff bd 6f 39 13 3d 59 76 84 3d 84 ff e7 bd
       -0.12452281 0.035943445 0.064678855 -0.113280326
0003e0 64 3a f1 3d 25 f1 ca 3d 3e 6f 44 be 41 54 3a be
       0.11778715 0.09909276 -0.1918306 -0.18196203
0003f0 fc 60 f4 bd 8c 29 c4 bd e2 bf 1b be b3 96 c7 bd
       -0.11932561 -0.09578237 -0.15209916 -0.097455405
